…
 1    8319
0    4535
Name: Political Lean, dtype: int64
Test Results Using Filter: bi_gram_vec_ {



Data Splitting Took: 0.5101 Seconds

Training Data Unique Labels:
 1    6652
0    3631
Name: Political Lean, dtype: int64
Testing Data Unique Labels:
 1    1667
0     904
Name: Political Lean, dtype: int64
NN Training Accuracy: 80.41
NN Testing Accuracy: 70.05
Model: "sequential"
_________________________________________________________________
 Layer (type)                Output Shape              Param #   
=================================================================
 dense (Dense)               (None, 12)                24012     
                                                                 
 dense_1 (Dense)             (None, 8)                 104       
                                                                 
 dense_2 (Dense)             (None, 50)                450       
                                                                 
 dropout (Dropout)           (None, 50)                0         
                                                                 
 dense_3 (Dense)             (None, 12)                612       
                                                                 
 dense_4 (Dense)             (None, 50)                650       
                                                                 
 dense_5 (Dense)             (None, 20)                1020      
                                                                 
 dense_6 (Dense)             (None, 1)                 21        
                                                                 
=================================================================
Total params: 26,869
Trainable params: 26,869
Non-trainable params: 0
_________________________________________________________________
input_dim = 2000
num_output = 1
optimizer = adam
activation = sigmoid
SVM Training Accuracy: 76.31%
SVM Training Confusion Matrix:
…
