…
80/81 [============================>.] - ETA: 0s - loss: 9.6084 - accuracy: 0.6812 81/81 [==============================] - 0s 3ms/step - loss: 9.5840 - accuracy: 0.6811
Testing Accuracy: 68.11
Model: "sequential"
_________________________________________________________________
 Layer (type)                Output Shape              Param #   
=================================================================
 dense (Dense)               (None, 12)                12012     
                                                                 
 dense_1 (Dense)             (None, 8)                 104       
                                                                 
 dense_2 (Dense)             (None, 50)                450       
                                                                 
 dropout (Dropout)           (None, 50)                0         
                                                                 
 dense_3 (Dense)             (None, 12)                612       
                                                                 
 dense_4 (Dense)             (None, 50)                650       
                                                                 
 dense_5 (Dense)             (None, 20)                1020      
                                                                 
 dense_6 (Dense)             (None, 1)                 21        
                                                                 
=================================================================
Total params: 14,869
Trainable params: 14,869
Non-trainable params: 0
_________________________________________________________________
<class 'pandas.core.frame.DataFrame'>
RangeIndex: 12854 entries, 0 to 12853
Columns: 2009 entries, Title to freq_vec_title_999
…
